weights/w1.npy (npy, 3280 bytes, 1 tensors)

array f4 [5, 5, 1, 32]
000000 48 a1 20 3e 7e 18 da bd af 72 0a 3e e2 ee 04 be
       0.15686524 -0.10649203 0.13520311 -0.12981752
000010 78 d0 30 3d 52 d8 08 3e 9a 4a ec bd e2 4e 95 3d
       0.04316756 0.1336377 -0.115376666 0.07290436
000020 06 3e 00 be 51 0f 8f bd 87 fe 62 3c 0d 5e 98 3c
       -0.1252366 -0.06985343 0.013854629 0.018599534
000030 11 a6 57 bc ef ac c0 3c 6d 3c fb 3b dd 02 29 bd
       -0.013162152 0.023519961 0.0076671154 -0.041262496
000040 16 2b 9e bd 3c 41 be 3d 61 b9 43 bd 3e 46 14 b8
       -0.07723062 0.09289786 -0.047784213 -3.5351368e-05
000050 43 01 85 3d 21 c7 15 bb 48 32 2d 3e e1 82 d8 bc
       0.06494381 -0.0022854286 0.16913712 -0.026429595
000060 d9 ea 0b 3d d9 8d e0 3b 40 23 fb 3c fe ff 0f bd
       0.034159515 0.006852847 0.030656457 -0.035156243
000070 39 f5 af bd 8d 34 0c 3d bb 24 a5 bd 5a 2c d6 3c
       -0.085916944 0.034229804 -0.080636464 0.026144195
000080 93 51 4e bd b2 ea a6 bd 7f 23 d1 bc b5 1b 03 3e
       -0.050370764 -0.08150233 -0.025529621 0.12803538
000090 8c f1 49 3d 5b bb 73 3d dc fd 41 3e d7 99 83 3d
       0.049302623 0.059504848 0.18944496 0.06425827
0000a0 3a 31 ef bc de 68 a1 bd 5e 49 3a bd 1e 43 d6 3d
       -0.029198278 -0.0788133 -0.045480125 0.1046202
0000b0 b4 69 8a bd 5b e4 d6 bd 7a 63 55 3b d5 10 12 3d
       -0.067584425 -0.10492774 0.0032560513 0.035660584
0000c0 9c 86 11 be 22 92 0a be ce 31 6b bd 05 02 da 3c
       -0.14211506 -0.13532308 -0.057420544 0.026612291
0000d0 83 16 63 bd 47 b8 18 bd 97 52 1b 3e 27 05 07 be
       -0.05544139 -0.037285116 0.15168224 -0.13185559
0000e0 34 f8 18 bd 3f 95 47 be b7 ea b1 3d 21 92 8b 3c
       -0.03734608 -0.19490527 0.086873464 0.017037453
0000f0 58 19 8a bc fe 9a f2 bc b3 fd a9 bd 88 78 62 bd
       -0.016857788 -0.029614922 -0.083003424 -0.05529073
000100 13 c4 12 3e 7f f5 80 bd d2 17 cd bd 1d 16 2c bd
       0.14332609 -0.06296825 -0.10014309 -0.042013276
000110 69 06 c0 3d 78 78 3b be cb 3d d8 3d f4 13 fb ba
       0.09376223 -0.18307674 0.10558661 -0.0019155727
000120 62 3b b5 bc 78 35 13 3c eb ad 12 3c 37 35 67 3d
       -0.022123042 0.008984916 0.008952598 0.056447234
000130 25 7f 37 3e e0 23 06 3d 64 46 95 3c 1f bc 8f 3d
       0.17919596 0.032749057 0.018222041 0.07018303
000140 ea ef a5 bc 99 28 33 be 43 01 85 bd 84 98 c3 bd
       -0.020256002 -0.17495956 -0.06494381 -0.095505744
000150 a1 23 05 3d 61 37 86 3d 70 1d 4f 3d f1 bb c2 bc
       0.03250468 0.065535314 0.050565183 -0.023771258
000160 e3 27 f1 bd e3 21 75 bd 85 9d ed 3d 57 35 48 3c
       -0.11775186 -0.05984677 0.1160231 0.012219748
000170 24 c5 2b bd e2 69 5a bc 34 40 2f bd f6 c7 37 3d
       -0.041936055 -0.0133309085 -0.04278584 0.044868432
000180 76 9f 31 be e8 17 07 be ac 70 1c be fa 34 a1 3d
       -0.17345986 -0.13192713 -0.15277356 0.078714326
000190 ad e4 43 3b 08 e2 2a bd 9e ac ba 3d c6 c3 85 bd
       0.002989094 -0.041719466 0.09114955 -0.065314814
0001a0 be a9 a7 bd 2b e9 e6 bc c7 af 12 3e 1d bd 5c 3d
       -0.08186673 -0.028187355 0.14324866 0.05389129
0001b0 55 8e dd bc 1a 7d cb 3d 31 3d b8 3d 97 16 a1 bd
       -0.027045408 0.099359706 0.08996046 -0.07865637
0001c0 b4 2a e8 bd 08 1b 4a 3d 51 31 59 bd c9 07 ed 3b
       -0.1133627 0.049342185 -0.053025547 0.007233594
0001d0 59 d0 1a be 9e c2 21 be fd 6f 15 3e 37 92 a0 3d
       -0.15118541 -0.15796897 0.14593501 0.07840388
0001e0 76 e2 79 3d 27 c1 90 ba f2 36 a1 3c fb 42 f0 b8
       0.061006986 -0.0011043892 0.01967952 -0.00011456568
0001f0 26 16 4e 3c 8e 3d af bd ce 72 9d 3d b0 90 80 3d
       0.012578523 -0.085566625 0.07687913 0.06277597
000200 55 9d 07 be 58 a8 a7 bd f0 7b 37 be 45 de 70 3d
       -0.13243611 -0.08186406 -0.17918372 0.058805723
000210 82 78 88 bd 36 7d 0b 3c 2b ea 12 be 2e 65 c9 bd
       -0.0666361 0.008513739 -0.1434714 -0.098337516
000220 5a 0d 57 bd 43 6b e6 bd d0 58 08 3d 04 e0 0e be
       -0.052502967 -0.11250927 0.033287823 -0.13952643
000230 d5 9e 5f 3d f5 d0 d9 bd 0e 72 ad bd dd 00 f9 3d
       0.054594833 -0.106355585 -0.0846902 0.12158368
000240 06 b2 7f bd 68 38 c5 3d d0 2b 20 be b3 93 38 3e
       -0.062425636 0.09629899 -0.15641713 0.18025093
000250 dc 64 29 3e 60 17 5a 3d bd b4 03 3b 89 32 fd bd
       0.16542381 0.05324495 0.0020096742 -0.123631544
000260 f0 1c 6d 3d 3e c1 aa 3c c0 9e 50 3d 58 47 13 3e
       0.057888925 0.020844098 0.050932646 0.14382684
000270 50 13 4a bc 58 25 14 3d 72 3e 64 bc 35 fd 87 3d
       -0.012333706 0.036168426 -0.013930904 0.06640092
000280 ed 66 6e 3d 61 79 f2 bd 19 b5 b8 3d 2c 02 4b be
       0.058203626 -0.118395574 0.09018917 -0.19825047
000290 11 34 e2 bd d7 b0 ed 3a c3 1c 4b bd 7f e8 4f 3d
       -0.11045087 0.0018134367 -0.049587976 0.050758835
0002a0 51 4b 0a 3d 81 ed a4 bc f5 ce 62 3d c7 d9 2a bd
       0.033763234 -0.020132782 0.05537315 -0.041711595
0002b0 18 39 de 3d fb 87 84 bd f6 1a 87 bd 4d f9 d8 3d
       0.108507335 -0.06471249 -0.06596939 0.10594425
0002c0 bb 8a 00 3d 75 d3 9d bd 15 c3 88 bd b2 e9 c8 3d
       0.031382304 -0.07706348 -0.06677834 0.09810199
0002d0 d9 23 c5 bd 99 09 00 be d4 dd 01 be 6f a6 89 3c
       -0.09625978 -0.12503661 -0.12682277 0.016802995
0002e0 97 02 dd 3d d7 3f 55 3d e5 ac e7 3c 5f 1f 31 3c
       0.107915096 0.052062836 0.028280685 0.010810702
0002f0 cc 3e 09 be 8f b9 3e be 52 a3 f9 bd 7e ed c4 3c
       -0.13402861 -0.18625472 -0.12189354 0.024039026
000300 31 71 8b 3d 1c a4 9f bc f1 91 a0 bd 3b 94 73 3d
       0.06808699 -0.019487433 -0.07840336 0.059467535
000310 47 27 9b bc 30 ba 86 3d 28 2e 88 3d d0 05 08 3e
       -0.018939627 0.06578481 0.066494286 0.13283467
000320 ef 65 8f 3d 3a c9 03 3d 20 5c 00 3d 10 c9 d8 bc
       0.07001864 0.032174326 0.031337857 -0.026463062
000330 d6 55 8e bd 30 34 32 3e 0a 2b 99 3d 3b 60 b4 3d
       -0.06949966 0.1740272 0.07478912 0.08807417
000340 a9 b1 e9 3c c6 ef 03 3e ef a7 9c bd b2 a3 2e 3e
       0.028527098 0.12884435 -0.07649218 0.17054632
000350 8a b5 68 3d 26 68 79 bb fd b9 3e be fc da 09 3e
       0.056813754 -0.0038056462 -0.18625636 0.13462442
000360 25 65 a7 3d 72 59 cf bc f3 70 c6 3c 6d 74 24 bd
       0.08173589 -0.025311206 0.02422378 -0.040150095
000370 a1 d1 8c bd c4 2f dd bd 5d c4 6f bd 44 01 08 bd
       -0.06875921 -0.10800126 -0.058536876 -0.033204332
000380 3b d0 7c 3d 87 65 a8 3d 67 47 c0 bd 7e 50 8a bd
       0.06172202 0.0822249 -0.09388619 -0.06753634
000390 7e 6b c3 bc 28 fb 75 3d ad 80 87 bc 25 23 0f 3e
       -0.023854967 0.060053974 -0.01654085 0.1397825
0003a0 7c 0c 02 3e 1d f7 0b bd 6d ed d3 3c 1f 23 09 3c
       0.12700075 -0.034171212 0.02587005 0.00837019
0003b0 e4 1b ac 3d e3 5d 76 bc 07 65 cd bd cb b3 cd 3d
       0.08403757 -0.015037033 -0.10029035 0.100440584
0003c0 fa b9 45 3c 15 05 1f be c4 30 1b be ff d5 05 3e
       0.012068266 -0.15529282 -0.15155321 0.13069914
0003d0 19 df c9 bd 12 40 37 be bb a7 36 be 30 e0 db bd
       -0.098570056 -0.17895535 -0.17837422 -0.1073612
0003e0 ed 49 14 be 30 dc 2a bd ed 94 e1 3c 35 bd 0f bc
       -0.14481325 -0.041713893 0.027536834 -0.008773138
0003f0 e2 94 25 bc 0f 30 c3 bd 4a b5 8d 3d f2 d1 f2 3d
       -0.010106297 -0.09530651 0.06919344 0.1185645
