weights/w2.npy (npy, 204880 bytes, 1 tensors)

array f4 [5, 5, 32, 64]
000000 d6 a8 d7 3d 1a 77 e4 bd 78 35 26 3d 67 5f 36 3e
       0.1053025 -0.11155529 0.040578336 0.1780983
000010 3c fb ac 3c 76 d8 bc bd 00 0e 8c 3d df 76 8e bd
       0.021115892 -0.09220974 0.06838608 -0.069562666
000020 6c 8e 12 be 05 b7 39 bd 89 8d d2 3c ca f0 9e 3d
       -0.14312142 -0.045340557 0.025702255 0.077607706
000030 41 87 95 3c da f5 9a bd 65 0b 91 bb 6f 28 c9 3c
       0.01825297 -0.07566424 -0.004426407 0.024555413
000040 0d a9 38 bd 2b e1 bb 3b 17 1d c6 3d 03 84 60 bc
       -0.045083094 0.005733629 0.09673517 -0.013703349
000050 8d 21 56 bd e4 89 68 b9 0e da 77 bd 70 cc 9d bd
       -0.05227809 -0.00022176612 -0.060510688 -0.07705009
000060 76 44 3a be 1b 66 a3 bd 57 03 27 3c 38 fe 14 be
       -0.18190178 -0.079784594 0.010193667 -0.14550102
000070 2a c2 bc 3d 22 ee 05 be 4c 32 40 bd aa c4 f6 bc
       0.09216721 -0.13079122 -0.046922967 -0.030123074
000080 d6 0c e3 3d 02 7c 47 bc 7d d0 04 bd 45 0b 15 3d
       0.11086433 -0.012175562 -0.032425392 0.0363877
000090 e8 ea 77 3c e0 9b 79 3b 3b 8d b4 3c 6e e0 02 3d
       0.01513169 0.0038087294 0.02204 0.031952314
0000a0 26 0e fa 3d ca e3 53 bd 0e 17 1d be 32 01 17 3e
       0.1220973 -0.05173091 -0.15340826 0.1474655
0000b0 13 11 9f bd dd b6 af bc b4 eb 74 3d 12 d8 11 3e
       -0.077669285 -0.0214495 0.059795097 0.1424258
0000c0 a4 75 08 bc f8 db d1 3d b5 ba 44 bc 69 7b f1 bc
       -0.008328829 0.10247034 -0.012007405 -0.029477792
0000d0 75 b7 40 3d 39 63 20 3c 3e c7 41 3e 0e 42 09 be
       0.04704996 0.0097892815 0.18923661 -0.13404104
0000e0 43 52 22 3d 5d d7 0a 3e ec 0c 41 be 6a 16 f9 bd
       0.039629232 0.13558717 -0.18852586 -0.12162478
0000f0 70 ad b9 bd 05 44 c1 3d d0 94 8d 3c 9f f4 fe 3c
       -0.09066284 0.09436802 0.017282873 0.031122504
000100 ca 30 2c 3e ae 21 43 3e a8 8b f1 3c 0b 2d 13 be
       0.16815487 0.19055817 0.029485539 -0.14372651
000110 63 01 16 3e 22 ca ed bd 7e 09 ba bd ae 0e 43 3d
       0.14648966 -0.116108194 -0.09083842 0.04762142
000120 05 f9 c2 3d 79 74 12 bd 7a 5a 8a bd ea 5d f7 3d
       0.09520153 -0.03575561 -0.06755538 0.120784596
000130 db c5 98 3b 59 74 38 be 78 00 2e 3c 35 77 3a 3d
       0.004662258 -0.18013133 0.010620229 0.04552384
000140 5e e1 4b be 7e 26 11 bd dc 91 1f bd fb 0f 95 3c
       -0.1991019 -0.0354371 -0.03895746 0.018196097
000150 d3 71 51 3d 2c aa 89 3c bf 00 17 be 89 52 14 be
       0.05113394 0.016804777 -0.14746378 -0.1448461
000160 76 61 ab 3c 46 34 8b 3d 1d 2a e8 bc 72 8f 17 bd
       0.020920496 0.0679708 -0.028340394 -0.037002034
000170 35 ef 02 be 8c a6 5a 3d f0 ee e7 3d 13 43 26 be
       -0.12786563 0.053381488 0.113248706 -0.16236524
000180 75 65 0a 3e 34 ca af bb 0d 49 1b 3d 8b bf 0c 3d
       0.13515265 -0.0053646807 0.037911464 0.034362357
000190 64 04 0f 3e 6a dc ca bd de fc 57 3c b8 77 a8 3d
       0.13966519 -0.09905322 0.013182847 0.082259595
0001a0 cf e1 ce 3d a1 07 e6 3d 3b 80 0f bd 42 8b 76 3d
       0.10101663 0.11231924 -0.0350344 0.0601914
0001b0 1c 63 1e bd 3c 5d a8 3b e7 19 1e 3e a8 e6 58 bd
       -0.038668737 0.0051380675 0.15439568 -0.052954346
0001c0 4a 88 19 bc de 3a 99 bc 26 aa 34 3d e7 93 50 bd
       -0.009370873 -0.018704828 0.04410758 -0.0509223
0001d0 d0 51 32 bd 61 67 a6 3d f5 33 e8 3d 6d ec 70 3d
       -0.043535054 0.08125187 0.11338035 0.058819223
0001e0 c2 93 62 bc 28 95 5c 3d 6f 74 08 be dd 03 14 bd
       -0.0138291735 0.053853184 -0.13325666 -0.036136497
0001f0 29 93 00 bd 9f ea e6 3c f5 1c d4 3d 97 eb 69 bd
       -0.031390343 0.028188048 0.103570856 -0.05710944
000200 28 3c a4 3d ab 5a 2e 3d b2 65 c2 3d 21 87 17 bd
       0.080192864 0.042566936 0.09492053 -0.036994103
000210 9d a0 94 bd d6 a0 3d 3e 18 c5 38 3c 39 e4 36 be
       -0.07257197 0.18518385 0.01127746 -0.17860498
000220 27 b8 e4 3d 16 39 e9 bd 06 22 27 bc 7a 60 07 3e
       0.11167937 -0.113878414 -0.010200983 0.13220397
000230 79 93 cd bb 0f 65 01 3e 3d 0e 0e 3d fe bc e5 bc
       -0.0062736836 0.12636207 0.034681547 -0.02804422
000240 5f 0a 26 3d 75 46 0d be c4 8c 1c 3e 8d 40 00 bc
       0.040537234 -0.13796408 0.15288073 -0.00782789
000250 11 6e dc 3d 19 b1 db 3b 6c df 90 3c 0c 29 4a bd
       0.10763181 0.0067044613 0.01768466 -0.04935555
000260 00 52 33 3e be 8c a6 3d 38 45 0b 3d a3 80 c9 3c
       0.1751175 0.08132313 0.03400156 0.024597472
000270 a2 e0 cf bd bc 96 03 be d1 d0 8e bd 50 7d fd 3c
       -0.10150267 -0.1285047 -0.06973422 0.030943543
000280 ee c8 e3 3d 5e 8b f1 3d 60 97 df bd ca 94 f2 3d
       0.11122309 0.1179416 -0.10917544 0.118447855
000290 1a 6b f3 3d f8 08 86 bd 9e 20 1f be a5 9b 40 39
       0.118856624 -0.065446794 -0.15539786 0.00018368529
0002a0 3d f7 a3 bd df 6f c3 3d 5a e0 91 bd 1f 77 01 3d
       -0.08006141 0.09542822 -0.0712287 0.031607743
0002b0 5b 03 0a 3e c1 c2 00 3d 63 d8 95 bd 0a aa 7f 3d
       0.13477843 0.03143573 -0.07316663 0.06241802
0002c0 3d 26 8c 3c 61 72 30 be e4 27 59 3d 7f bb ac 3d
       0.017108077 -0.17231132 0.05301656 0.084341995
0002d0 de 33 39 3d 97 26 9c 3c 6f 40 62 bd 6d 32 1b bd
       0.04521548 0.01906137 -0.05523723 -0.037889887
0002e0 f8 9f 88 3d 05 81 4f bd 1a 1a 78 3d 80 2f e5 3c
       0.066711366 -0.050660152 0.060571767 0.027976751
0002f0 d6 8b 21 3d d0 17 cf 3d 42 3d 1a be a6 a0 7a 3d
       0.03944 0.10111964 -0.1506243 0.061188363
000300 ca f0 9c bc 46 86 06 be 0a d0 ad bd da 11 85 bd
       -0.019157786 -0.13137159 -0.08486946 -0.064975455
000310 37 04 25 3d ce 92 82 bd 26 e0 af bd 40 ef 39 3d
       0.040287223 -0.06375657 -0.08587675 0.045394182
000320 7b b1 b7 bb 38 50 d6 3c a1 a1 f8 3c 36 23 2f 3e
       -0.005605874 0.026161298 0.030350508 0.17103276
000330 9e f6 68 3c 84 13 33 3d 8d c6 bc 3c 94 9a e9 3d
       0.014218954 0.043719783 0.023043895 0.114064366
000340 c8 a1 97 bc 5f a4 99 bd 7d 31 f0 bc ae b1 22 3e
       -0.01850976 -0.075020544 -0.029320473 0.15888092
000350 53 f4 08 3e 9d 97 92 bd 28 79 08 3e 29 91 77 bd
       0.13374452 -0.07157824 0.13327467 -0.06044117
000360 e9 f0 f1 bc 54 dc 9e bd 8e 0e 4c 3d 32 c3 ac bd
       -0.02953382 -0.07756868 0.049818568 -0.08435668
000370 84 96 9a 3d f3 aa 86 3c 83 6d 1e bc 32 4d 1b 3e
       0.0754824 0.016438937 -0.009669664 0.15166166
000380 c1 46 d3 3c 68 ef b3 bc 43 67 34 bd 4a 9d fd bd
       0.025790574 -0.021964744 -0.04404379 -0.12383516
000390 1d 6c 13 3e cc fc cb 3b 60 ed b5 3c 5f 7e 8d 3c
       0.1439671 0.006225204 0.022207916 0.017272172
0003a0 c7 4a 9f bd f9 51 4d bd 9b cc e9 bd 70 5c f5 3d
       -0.077779345 -0.050127003 -0.114159785 0.11980522
0003b0 e8 f7 49 bd ac 6c 32 bd 39 86 94 3d cb 76 b5 3d
       -0.049308687 -0.04356067 0.072521634 0.088605486
0003c0 37 51 bd bd ee 67 c2 3d 4e 7e 47 3e 9d 01 d0 3b
       -0.09244006 0.09492479 0.19481775 0.0063478486
0003d0 31 61 2c bc 8b ab 01 3e eb 79 07 3b 50 9a 4c bd
       -0.010521219 0.12663095 0.0020672034 -0.04995185
0003e0 61 1a 51 bd e0 4d 95 bd 70 7a 9b 3d 25 75 b8 bd
       -0.051050548 -0.07290244 0.075917125 -0.090067185
0003f0 eb dd 41 be cb 2d 80 3d 61 f3 b5 3d f1 bb 89 bd
       -0.18932311 0.06258734 0.088843115 -0.067253
